dp_model_real.npz (torch, 208549 bytes, 18 tensors)

_module.lstm.weight_ih_l0 f4 [256, 2]
-0.124762 0.070022054 0.021481192 -0.08514302 -0.007342262 -0.0062366566 -0.057966128 -0.042258892
0.047541972 -0.14229928 0.10833481 0.10275801 0.03912538 -0.03281673 0.06758939 0.07566002
-0.015107862 -0.092152625 -0.110999405 0.085953936 0.122599095 -0.0014727935 -0.05415762 0.0013877332
-0.046034675 0.018480653 0.051500425 -0.032524493 -0.080630764 -0.0596167 -0.089909546 -0.12639423
-0.07951325 -0.043071 -0.06635688 0.03756109 -0.04124815 -0.15233831 0.11354307 -0.036906272
0.07474785 0.11756963 0.065138824 -0.10239478 -0.0168105 0.12185018 0.031456035 -0.08564096
0.05607926 -0.03856363 -0.005862072 0.05731154 0.05798682 -0.0058270935 -0.09152568 0.13486241
-0.066370726 0.10757843 0.042176254 0.020196246 0.11324809 -0.0077327522 -0.11206725 -0.09027223
0.019915037 0.048998088 0.033396948 0.07509237 0.05997525 0.05671914 0.13878745 0.09736784
-0.08578089 -0.029055497 -0.14357384 0.039885685 -0.11843623 -0.03092845 0.050946817 0.10528666
-0.03456967 -0.022869557 0.18337621 -0.061284598 0.017788129 0.10368004 0.09182193 -0.036981817
0.056481734 0.10765782 0.08527644 -0.09587862 -0.11570281 -0.12760153 -0.0059281914 0.024752928
-0.025226759 0.0328312 0.1367913 0.09623806 -0.04132769 0.0074908473 0.009585645 0.061445225
-0.03388847 -0.009840097 -0.014828184 0.035273157 -0.11075585 0.11306332 0.041177366 -0.031056952
-0.045405645 0.124856025 -0.075471886 -0.12875658 0.09158095 0.0069645746 -0.068461046 -0.117361605
0.04515651 -0.118556 -0.048403375 -0.10670096 -0.08038064 0.06992644 -0.04895629 0.04218811
-0.11823859 -0.11668346 -0.047441375 0.007663809 -0.0099062715 -0.05938503 -0.009428568 -0.009390116
0.02815919 0.060761724 0.11450801 -0.05849086 -0.090043165 -0.027779572 -0.010423972 -0.09263082
0.09755742 0.08316389 0.047972362 -0.006904434 0.10531017 0.014494231 -0.11664081 0.102013074
0.13432372 -0.061488997 0.06449049 -0.06710274 0.0017353103 0.055804554 -0.0021423122 -0.12560296
0.07415175 0.09528121 0.00092954846 0.024308097 -0.056953765 -0.072397545 0.10383036 0.04020832
-0.0532062 0.057912625 0.03711889 0.048983578 -0.015714046 -0.053997703 -0.029521178 0.023058152
0.070338525 -0.050789636 -0.104602605 -0.07211241 0.13336928 -0.13630725 0.03359002 0.04380434
0.08634105 -0.002303263 -0.03645576 0.04717269 -0.10691587 -0.066058844 0.03172468 -0.050924823
0.04052658 0.032662 0.09141109 0.10185711 0.002698553 -0.026653662 0.10548123 -0.07367239
0.0663679 0.03767924 -0.05945984 -0.009359556 -0.023808999 -0.08675081 -0.07151578 0.060609832
0.056175638 -0.09878613 0.088363536 -0.0127567975 -0.03686346 0.02489105 0.005432444 -0.08656947
0.038262773 0.06207765 -0.0021985976 -0.00047383507 0.017776545 -0.102242 0.08657646 -0.11173322
-0.08351968 0.10498777 0.049914967 -0.023180999 0.016912142 0.03764605 0.0037601383 0.12088355
-0.112921 0.0795929 -0.10388646 0.08658521 -0.03634231 -0.02274121 0.05920261 0.009885327
0.0024327177 -0.10279218 0.11265877 -0.07810212 0.042513683 0.027950948 -0.08851543 -0.007731911
-0.080818005 0.08214691 0.1283833 0.11929127 -0.019192837 0.02005925 0.1194061 0.10062975
00000000: 3883 ffbd b967 8f3d 53f9 af3c 775f aebd
00000010: 5c97 f0bb de5c ccbb e46d 6dbd a917 2dbd
00000020: 5fbb 423d e7b6 11be a4de dd3d cb72 d23d
00000030: ef41 203d d66a 06bd 4e6c 8a3d a4f3 9a3d
00000040: f786 77bc 84ba bcbd a853 e3bd 9e08 b03d
00000050: 3c15 fb3d c00a c1ba 61d4 5dbd 99e4 b53a
00000060: db8e 3cbd bd64 973c 1cf2 523d 6738 05bd
00000070: be21 a5bd a430 74bd 7f22 b8bd 7d6d 01be
00000080: d8d7 a2bd 386b 30bd 1ee6 87bd a8d9 193d
00000090: d2f3 28bd 93fe 1bbe 4589 e83d 082b 17bd
000000a0: 6715 993d 59c8 f03d 8167 853d 5bb4 d1bd
000000b0: 2cb6 89bc 968c f93d 0bd8 003d 8764 afbd
000000c0: 5eb3 653d e6f4 1dbd a016 c0bb 81bf 6a3d
000000d0: 9683 6d3d 34f1 bebb d171 bbbd 5f19 0a3e
000000e0: 60ed 87bd 1452 dc3d 02c1 2c3d 9972 a53c
000000f0: 9dee e73d 0763 fdbb 8483 e5bd a6e0 b8bd
00000100: dc24 a33c 38b2 483d 3dcb 083d 07ca 993d
00000110: 9ca8 753d 5452 683d 4c1e 0e3e ca68 c73d
00000120: e4ad afbd cb05 eebc 0505 13be 2c5f 233d
00000130: b28e f2bd a95d fdbc 9cad 503d 88a0 d73d
00000140: ed98 0dbd f058 bbbc f9c6 3b3e 8f05 7bbd
00000150: 69b8 913c 3356 d43d 230d bc3d 3f7a 17bd
00000160: 6459 673d b47b dc3d 6aa5 ae3d 035c c4bd
00000170: 98f5 ecbd faa9 02be 4641 c2bb a7c6 ca3c
00000180: 59a8 cebc 027a 063d 0513 0c3e 7618 c53d
00000190: 3947 29bd c875 f53b 1c0d 1d3c fdad 7b3d
000001a0: a3ce 0abd 5c38 21bc e9f1 72bc 967a 103d
000001b0: f7d3 e2bd be8d e73d 99a9 283d 266b febc
000001c0: 45fb 39bd 84b4 ff3d 0191 9abd c4d8 03be
000001d0: cb8e bb3d 1637 e43b 4e35 8cbd 485b f0bd
000001e0: 08f6 383d 7dcd f2bd 9e42 46bd 0886 dabd
000001f0: 9b9e a4bd 9835 8f3d 6486 48bd 71cd 2c3d
00000200: 1327 f2bd bdf7 eebd e351 42bd b120 fb3b
00000210: ea4d 22bc b83d 73bd 487a 1abc 00d9 19bc
00000220: 1aae e63c 49e1 783d 2d83 ea3d 1d94 6fbd
00000230: 8d68 b8bd fc91 e3bc 4fc9 2abc 3ab5 bdbd
00000240: 2fcc c73d d451 aa3d ab7e 443d 973e e2bb
00000250: dcac d73d 3679 6d3c 61e1 eebd 3bec d03d
00000260: 288c 093e e3db 7bbd 9713 843d 296d 89bd
00000270: 5a73 e33a 5193 643d 0966 0cbb 109e 00be
00000280: dfdc 973d cc22 c33d f1ac 733a c621 c73c
00000290: 5a48 69bd 2a45 94bd 03a5 d43d 7bb1 243d
000002a0: bfee 59bd ca35 6d3d fa09 183d 01a3 483d
000002b0: beba 80bc b22c 5dbd 66d6 f1bc 73e4 bc3c
000002c0: a50d 903d cb08 50bd e439 d6bd acaf 93bd
000002d0: f591 083e 2194 0bbe b095 093d 2e6c 333d
000002e0: 94d3 b03d 57f2 16bb a352 15bd 2738 413d
000002f0: b5f6 dabd dc49 87bd bdf1 013d 8c96 50bd
00000300: 33ff 253d 97c8 053d bd35 bb3d 769a d03d
00000310: 35da 303b c858 dabc 8b06 d83d 8de1 96bd
00000320: e5eb 873d 8c55 1a3d 298c 73bd d358 19bc
00000330: 170b c3bc 69aa b1bd de76 92bd 0442 783d
00000340: 6d18 663d 6250 cabd f1f7 b43d e301 51bc
00000350: 24fe 16bd 51e8 cb3c a502 b23b 564b b1bd
00000360: 6db9 1c3d 2245 7e3d 5916 10bb 116d f8b9
00000370: 1ea0 913c 4164 d1bd 004f b13d 63d4 e4bd
00000380: 5e0c abbd d403 d73d a373 4c3d 14e6 bdbc
00000390: 558b 8a3c bf32 1a3d a76c 763b cb91 f73d
000003a0: 2043 e7bd 9a01 a33d 6dc2 d4bd 9653 b13d
000003b0: addb 14bd c64b babc 707e 723d 11f6 213c
000003c0: 3b6e 1f3b b584 d2bd a4b9 e63d 01f4 9fbd
000003d0: d422 2e3d 63f9 e43c 9447 b5bd f85b fdbb
000003e0: e983 a5bd a43c a83d e976 033e fb4e f43d
000003f0: 4c3a 9dbc 4c53 a43c 2f8b f43d f816 ce3d

_module.lstm.bias_ih_l0 f4 [256]
-0.019246422 0.10823741 -0.09715924 0.14789134 -0.047108866 0.077881575 0.08989475 0.060033172
0.055610865 -0.08206475 0.046098642 0.07683363 0.06644774 0.097916946 -0.038707834 -0.06308875
0.010715743 -0.13680954 0.05719474 -0.07530169 -0.1099062 -0.035081036 -0.102602154 -0.091826834
0.11858505 0.09129922 0.016529797 0.098928 0.04422039 -0.094117455 0.0030947796 -0.0031098032
-0.06303267 0.04285173 0.07065915 -0.055192105 -0.009273458 0.07145836 -0.0100203855 0.11358849
0.05286077 -0.077059366 0.099672906 0.10495541 0.08284173 -0.10843054 0.0935184 -0.047145538
0.07094913 0.10174291 0.07043094 -0.037385367 0.0005734857 -0.07629735 0.093737476 0.05025763
0.067568265 0.08960843 -0.0892148 0.0920424 0.12045667 0.0761246 -0.014917933 -0.0632936
-0.11902624 0.01774237 0.06354164 -0.052936208 -0.06469679 -0.07964894 0.06387768 -0.019487659
0.109462775 0.06734275 0.063245006 0.04605999 -0.16787162 -0.07303713 -0.12953158 -0.13150467
0.008476422 -0.11542325 0.13601659 -0.07349353 0.004745409 -0.009382933 0.107824 0.100968935
0.13531163 -0.031034911 -0.04524756 -0.12165577 0.049148913 0.0033946417 0.117217466 0.08441799
0.106251985 -0.08546568 0.10847201 -0.09313342 0.05614727 0.042631548 0.073215805 0.05351332
0.0049949056 -0.076504245 0.015449652 -0.12489251 0.08390908 0.089554116 -0.10289367 0.0040875417
-0.08871895 0.0841284 0.090604305 0.026158694 -0.1416738 -0.085485965 0.08740116 -0.036232322
-0.05190229 -0.03192519 -0.1059481 0.09744445 0.041261867 -0.020285076 0.066929996 -0.111767
0.015466415 0.0941735 -0.021650858 0.07040382 -0.062087126 -0.067677096 -0.067348994 -0.034125473
0.09197951 0.084670305 -0.010403594 0.03005278 0.032136153 -0.11420684 -0.08518595 -0.05282361
0.0274869 0.07985609 0.0019697195 -0.118881896 0.007411645 0.011654307 0.09246945 -0.060288697
-0.037202485 0.065883726 0.10214505 0.09694145 -0.021517769 0.076896764 0.15914647 0.0038222866
0.08484083 -0.009004448 0.060273893 -0.10373807 0.10358897 0.050557192 0.087377645 0.07176208
0.076603204 0.027148344 -0.013333585 -0.10680675 0.023685724 0.06669958 0.008396087 0.0007495826
0.06072416 -0.030897753 -0.06516005 -0.06446693 0.0032080405 0.0681928 0.067000136 -0.0925098
-0.0839356 -0.039322726 0.027129516 0.06072504 0.022790428 0.04012415 -0.10696465 0.10938092
-0.007025446 0.12401448 -0.105442494 0.091191866 0.16311646 0.096105464 0.097113006 -0.057002656
0.08493507 -0.11567566 -0.03180111 0.07510409 0.1224011 0.095139384 -0.07874416 0.024041183
-0.07048982 -0.012636272 0.062405113 0.05054412 -0.10559768 -0.05437859 -0.09256031 -0.057831515
0.1588173 -0.03092122 -0.026900088 0.0894691 0.0010255189 0.042140383 0.045503665 0.1057973
0.09164077 -0.0524677 0.1163853 -0.13494457 0.14401801 0.11231904 -0.07593363 0.08836271
0.08576856 -0.053890932 0.04183492 -0.027533356 -0.09330602 -0.022514831 0.11913313 -0.008680854
-0.13291505 0.010019479 -0.103130504 -0.098056115 -0.13031177 0.04209271 -0.0014499954 -0.009991322
0.08114576 -0.10554119 0.018932736 0.07240187 0.11589362 0.02306907 -0.074035026 -0.11727912
00000000: acaa 9dbc 93ab dd3d 6cfb c6bd d470 173e
00000010: 3af5 40bd 6080 9f3d bd1a b83d 58e5 753d
00000020: 38c8 633d 9011 a8bd eed1 3c3d f35a 9d3d
00000030: c115 883d ae88 c83d 1b8c 1ebd ad34 81bd
00000040: 1591 2f3c cd17 0cbe 0845 6a3d c637 9abd
00000050: 8016 e1bd 22b1 0fbd 1421 d2bd b50f bcbd
00000060: b8dc f23d 16fb ba3d 7f69 873c c39a ca3d
00000070: 7120 353d a7c0 c0bd c9d1 4a3b d7cd 4bbb
00000080: 4617 81bd 4c85 2f3d bfb5 903d 1e11 62bd
00000090: b4ef 17bc c358 923d 8b2c 24bc 15a1 e83d
000000a0: 8984 583d 4dd1 9dbd 4f21 cc3d ddf2 d63d
000000b0: eda8 a93d d510 debd 9386 bf3d ae1b 41bd
000000c0: c74d 913d 965e d03d 193e 903d 6621 19bd
000000d0: f955 163a c941 9cbd 6ff9 bf3d f2da 4d3d
000000e0: 3b61 8a3d a084 b73d 40b6 b6bd ba80 bc3d
000000f0: fdb1 f63d 37e7 9b3d 596a 74bc 13a0 81bd
00000100: 08c4 f3bd 7258 913c 1f22 823d a3d3 58bd
00000110: c07f 84bd fc1e a3bd 4dd2 823d 95a4 9fbc
00000120: 052e e03d ffea 893d 9986 813d 66a9 3c3d
00000130: 8ae6 2bbe 7e94 95bd eda3 04be 29a9 06be
00000140: b1e0 0a3c 0663 ecbd ef47 0b3e c783 96bd
00000150: 607f 9b3b e0ba 19bc d4d2 dc3d cdc8 ce3d
00000160: 228f 0a3e ed3c febc 8155 39bd a926 f9bd
00000170: 5f50 493d a378 5e3b b60f f03d 57e3 ac3d
00000180: a49a d93d a108 afbd 9326 de3d bcbc bebd
00000190: aefa 653d 6b9e 2e3d 2bf2 953d c830 5b3d
000001a0: 4eac a33b 42ae 9cbd 8a20 7d3c a5c7 ffbd
000001b0: 86d8 ab3d 2668 b73d ebb9 d2bd c9f0 853b
000001c0: 48b2 b5bd 834b ac3d c08e b93d c24a d63c
000001d0: f012 11be 4413 afbd 61ff b23d 5868 14bd
000001e0: 7f97 54bd fdc3 02bd 51fb d8bd f590 c73d
000001f0: 3402 293d e32c a6bc 9812 893d 19e6 e4bd
00000200: d966 7d3c 09de c03d 245d b1bc e12f 903d
00000210: 124f 7ebd 4a9a 8abd 45ee 89bd 27c7 0bbd
00000220: c15f bc3d a067 ad3d d673 2abc 3f31 f63c
00000230: 33a1 033d 47e5 e9bd f975 aebd 925d 58bd
00000240: 352c e13c 978b a33d 6916 013b 5a78 f3bd
00000250: 62dd f23b b5f1 3e3c 9f60 bd3d 48f1 76bd
00000260: a261 18bd 0cee 863d 6d31 d13d 3d89 c63d
00000270: 0846 b0bc 0d7c 9d3d 4bf7 223e 547f 7a3b
00000280: 07c1 ad3d 6487 13bc c2e1 763d a074 d4bd
00000290: 7426 d43d 0f15 4f3d 0df3 b23d fff7 923d
000002a0: 24e2 9c3d 3466 de3c 1c75 5abc 7fbd dabd
000002b0: 9008 c23c ca99 883d be8f 093c a37f 443a
000002c0: e6b9 783d 491d fdbc a272 85bd 3d07 84bd
000002d0: fd3d 523b aba8 8b3d 5e37 893d c775 bdbd
000002e0: 6ee6 abbd de10 21bd b83e de3c d2ba 783d
000002f0: feb2 ba3c 3959 243d 4810 dbbd 1b03 e03d
00000300: b635 e6bb 4efb fd3d 3cf2 d7bd cdc2 ba3d
00000310: 0008 273e f1d2 c43d 2fe3 c63d 9e7b 69bd
00000320: 70f2 ad3d 5ce7 ecbd e141 02bd 2cd0 993d
00000330: 6ead fa3d 70d8 c23d 9e44 a1bd 04f2 c43c
00000340: f75c 90bd 5e08 4fbc 819c 7f3d 5a07 4f3d
00000350: 9943 d8bd 16bc 5ebd 4390 bdbd bde0 6cbd
00000360: 01a1 223e 804e fdbc 935d dcbc 933b b73d
00000370: b46a 863a 659b 2c3d 0d62 3a3d 41ac d83d
00000380: 28ae bb3d 5fe8 56bd 6b5b ee3d e92e 0abe
00000390: 7579 133e 8607 e63d 1783 9bbd 82f7 b43d
000003a0: 6da7 af3d bdbc 5cbd 185b 2b3d a28d e1bc
000003b0: 3a17 bfbd 0671 b8bc 12fc f33d 243a 0ebc
000003c0: e21a 08be be28 243c 1636 d3bd a5d1 c8bd
000003d0: 7370 05be 6869 2c3d c60d beba a4b2 23bc
000003e0: c02f a63d fb25 d8bd d318 9b3c 6e47 943d
000003f0: a259 ed3d 59fb bc3c ad9f 97bd 0930 f0bd

_module.lstm.weight_hh_l0 f4 [256, 64]
-0.07428343 0.039152976 -0.050574962 -0.029784521 0.00963505 -0.07728038 -0.08560535 0.07496664
-0.1335333 -0.05319871 0.07455195 0.018090341 0.053663626 0.013345597 -0.078991376 -0.08131477
-0.102249764 0.11207178 0.078249216 -0.07567617 0.11765893 0.00704006 -0.101022035 -0.030792182
-0.09445389 -0.012465947 -0.075296625 0.06515415 0.01434041 -0.02823845 0.058255415 -0.044700857
-0.10508666 0.071022235 -0.057822257 -0.09739152 -0.02433882 -0.054671656 0.12314021 0.08599433
0.030984191 -0.11070334 -0.043818302 0.039016176 0.029558435 0.04047277 -0.04936647 -0.05972052
-0.12725791 0.022117581 0.0093162265 0.10947776 0.08689311 -0.06345774 0.0102953315 -0.07538078
-0.0929643 -0.03281436 0.054387636 0.035882108 0.07397356 -0.04159651 -0.034562863 -0.036741793
0.0012520056 -0.015295207 -0.0793765 0.06816515 -0.021482436 0.02102834 0.052806977 0.07702877
-0.07219601 -0.10535074 0.03136 0.08643854 0.08094452 0.05977282 -0.041443042 -0.018479548
0.09341834 -0.12516095 -0.08400182 0.07754565 -0.023908388 0.06819188 -0.10773688 0.052316334
-0.029434638 -0.105358854 0.018434398 -0.109901555 -0.029925292 -0.003201313 0.06490201 0.09183172
0.077058196 -0.015627136 -0.061500847 -0.082955174 -0.05193118 -0.04288792 -0.026758024 -0.019195775
-0.055291686 -0.08470803 0.068427555 0.14591204 0.028094284 -0.041380975 0.065239385 0.055510756
-0.016363692 -0.08418901 0.086011164 0.031768426 -0.111574 0.03570597 -0.03572676 0.0351001
0.015981743 -0.036729593 0.10348582 0.12264982 -0.07662275 -0.06797266 -0.069968395 0.118328646
-0.058031816 -0.11171412 -0.018906256 0.035237227 -0.005047745 -0.109198175 0.05821691 0.04002902
0.04995855 0.019264195 0.065591075 -0.07473124 0.022292245 0.021462668 0.08613738 -0.113398015
0.049896695 -0.011585257 0.07288277 -0.046789635 0.08096229 0.11751794 -0.033864502 -0.025216144
0.048562676 0.020360567 0.095581256 -0.014858715 0.023659298 0.12784618 0.08047148 0.06337885
-0.06894131 -0.15130565 -0.11720541 -0.070790514 0.007578476 0.049708463 -0.04879174 -0.104962826
0.04018424 0.07933674 0.12405428 0.020956933 0.11139191 0.061747488 0.115404405 0.043996673
-0.10020513 0.08432201 0.04237951 -0.1283974 -0.05630103 0.039289583 -0.07441788 -0.01575638
0.10904637 0.032914564 -0.11259803 -0.013572497 0.040677194 0.10050451 -0.1395434 0.07609976
-0.12789704 -0.007425874 0.10615763 -0.063155584 -0.015893718 0.011014189 0.060501754 -0.062146205
0.0154687865 -0.092236035 0.076663055 -0.0809971 -0.1100817 -0.11637369 -0.015951052 0.04579726
-0.08107784 -0.10071469 -0.1014925 -0.037917465 0.03899692 -0.046646506 0.089648426 -0.016742492
0.046401802 -0.06931195 0.099502236 0.05973246 0.037939254 -0.091207325 -0.016590048 -0.081510015
0.012988703 -0.030368764 0.13355674 0.11688503 0.116747506 -0.033210874 0.09400468 -0.013261664
0.09386232 0.025416562 0.11939604 -0.10953546 -0.043637507 -0.030312996 -0.028379852 0.03351767
0.101201914 0.09338537 -0.0039637694 -0.08759326 -0.1307826 0.09609578 -0.034577526 -0.078085735
0.000823046 0.0061973473 0.09825082 -0.10529479 -0.018136272 0.12696654 0.07906283 -0.08497768
00000000: e921 98bd df5e 203d b127 4fbd abfe f3bc
00000010: 54dc 1d3c 2d45 9ebd dc51 afbd 1c88 993d
00000020: f4bc 08be e4e6 59bd b1ae 983d 3232 943c
00000030: 64ce 5b3d 7ea7 5a3c 3bc6 a1bd 5c88 a6bd
00000040: 5368 d1bd e485 e53d 2041 a03d 1cfc 9abd
00000050: 2af7 f03d 4eb0 e63b a4e4 cebd e33f fcbc
00000060: 0b71 c1bd f93d 4cbc 1e35 9abd 8a6f 853d
00000070: 0af4 6a3c 5254 e7bc 3b9d 6e3d 3f18 37bd
00000080: ad37 d7bd 1b74 913d 08d7 6cbd 3575 c7bd
00000090: 3462 c7bc 63ef 5fbd ef30 fc3d cc1d b03d
000000a0: 8fd2 fd3c 6fb8 e2bd d27a 33bd 6dcf 1f3d
000000b0: 8824 f23c c6c6 253d 7f34 4abd 819d 74bd
000000c0: e64f 02be ee2f b53c 16a3 183c e035 e03d
000000d0: 04f5 b13d 22f6 81bd c0ad 283c 3d61 9abd
000000e0: 1164 bebd 5a68 06bd 92c5 5e3d 1ef9 123d
000000f0: 737f 973d 1a61 2abd ca91 0dbd 907e 16bd
00000100: 561a a43a bf98 7abc 2590 a2bd 2c9a 8b3d
00000110: effb afbc a043 ac3c 214c 583d 43c1 9d3d
00000120: 80db 93bd 21c2 d7bd 5873 003d b006 b13d
00000130: 3ec6 a53d 58d4 743d 2ec0 29bd 6c62 97bc
00000140: 1d52 bf3d 312a 00be 2509 acbd 41d0 9e3d
00000150: 86db c3bc 2fa8 8b3d 27a5 dcbd a749 563d
00000160: e920 f1bc 62c6 d7bd bc03 973c 1114 e1bd
00000170: e325 f5bc 1fcd 51bb 58eb 843d 4512 bc3d
00000180: b0d0 9d3d 7b04 80bc 50e8 7bbd 67e4 a9bd
00000190: cab5 54bd 3eab 2fbd a533 dbbc 7540 9dbc
000001a0: 8979 62bd 677b adbd bf23 8c3d f769 153e
000001b0: fc25 e63c 197f 29bd 3a9c 853d 3f5f 633d
000001c0: 260d 86bc 4a6b acbd 9f26 b03d 9c1f 023d
000001d0: e980 e4bd 6c40 123d 3956 12bd 1fc5 0f3d
000001e0: 25ec 823c c571 16bd 60f0 d33d d42f fb3d
000001f0: 63ec 9cbd 4035 8bbd 974b 8fbd 4a56 f23d
00000200: c5b2 6dbd 5fca e4bd 4be1 9abc e954 103d
00000210: 8e67 a5bb 4ba3 dfbd db74 6e3d 78f5 233d
00000220: 56a1 4c3d f2cf 9d3c 9d54 863d b10c 99bd
00000230: 3a9e b63c 7ad2 af3c cb68 b03d 383d e8bd
00000240: 7a60 4c3d 17d0 3dbc 9043 953d 7da6 3fbd
00000250: 8fcf a53d 3fad f03d 81b5 0abd 1692 cebc
00000260: a8e9 463d 34cb a63c 1bc0 c33d f871 73bc
00000270: 25d1 c13c 1cea 023e 3bce a43d c5cc 813d
00000280: 1a31 8dbd deef 1abe 6409 f0bd 9efa 90bd
00000290: dd54 f83b 1a9b 4b3d d9d9 47bd c0f6 d6bd
000002a0: 3b98 243d 4d7b a23d 2c10 fe3d e0ad ab3c
000002b0: 7121 e43d efea 7c3d 2559 ec3d db35 343d
000002c0: 5938 cdbd 05b1 ac3d 2396 2d3d 9c7a 03be
000002d0: e99b 66bd 1dee 203d 6768 98bd 8613 81bc
000002e0: b453 df3d 6cd1 063d cc99 e6bd 2e5f 5ebc
000002f0: 219d 263d 4fd5 cd3d 77e4 0ebe 31da 9b3d
00000300: 71f7 02be bf54 f3bb 2c69 d93d b757 81bd
00000310: 8b33 82bc db74 343c b0d0 773d 058d 7ebd
00000320: cb70 7d3c 3fe6 bcbd 8501 9d3d cfe1 a5bd
00000330: 8472 e1bd 5455 eebd c8ab 82bc e895 3b3d
00000340: 230c a6bd 8143 cebd 4ddb cfbd 584f 1bbd
00000350: 3cbb 1f3d 6810 3fbd 9899 b73d 8d27 89bc
00000360: d10f 3e3d 6cf3 8dbd d4c7 cb3d 06aa 743d
00000370: 3166 1b3d e8ca babd dae7 87bc b9ee a6bd
00000380: 92ce 543c eac7 f8bc 19c3 083e 6b61 ef3d
00000390: 5119 ef3d 2008 08bd 8785 c03d 7347 59bc
000003a0: e33a c03d 6536 d03c e985 f43d 2154 e0bd
000003b0: 3ebd 32bd f652 f8bc dd7c e8bc d349 093d
000003c0: f342 cf3d d440 bf3d 82e2 81bb 1864 b3bd
000003d0: e0eb 05be ddcd c43d 2aa1 0dbd 6aeb 9fbd
000003e0: afc1 573a 1e13 cb3b ba37 c93d cba4 d7bd
000003f0: 8592 94bc 8403 023e b1eb a13d c708 aebd

_module.lstm.bias_hh_l0 f4 [256]
-0.094899274 0.021579059 -0.0046105688 0.09792802 0.034462627 0.07373765 0.09317973 0.14171945
0.02933737 0.05653776 0.00783128 0.11867931 -0.031605877 0.07593291 -0.03878701 0.1255237
0.0029096175 0.0681662 0.08470006 0.10251439 0.10024296 -0.1281786 -0.12786238 0.13572977
0.05734757 0.07627795 0.11329193 -0.123320386 0.10327033 0.033469822 -0.0062384843 -0.10211158
0.13307075 -0.11508297 0.027615864 -0.053364538 0.11927453 0.009616911 0.073073804 0.10203204
0.07513508 -0.01027477 -0.0050438247 0.09639569 -0.00892723 -0.002628939 0.022978941 0.0365074
-0.058686864 -0.08202992 0.14808129 -0.112687014 -0.047549542 0.023628073 -0.084829465 -0.015428009
-0.061711468 0.0060629034 0.11394024 0.05655969 -0.11459238 -0.13410452 0.056749433 -0.08229267
-0.022338537 -0.0576573 -0.110178486 0.15433322 0.10098487 0.10125663 -0.052193873 0.12525967
-0.03075775 0.015274571 -0.011226254 0.086375356 0.052739665 0.0029202863 -0.057267472 -0.12363157
-0.099615075 0.109284 -0.062387865 -0.104024224 -0.067521825 -0.0117642125 0.04486532 -0.10717672
0.0151609145 -0.12811711 -0.019269781 -0.115328394 0.114089586 -0.102620155 0.12374125 -0.04287229
-0.05160298 0.024188438 0.11115785 -0.033459045 -0.097122364 0.08461468 -0.11385218 0.07900199
0.05597825 0.016403653 0.09191401 0.06947021 -0.12564503 0.11878138 0.036610182 0.0029031807
0.14424488 0.11798539 -0.079082 0.0427972 -0.10427642 -0.06023143 -0.015100988 -0.024743771
-0.045229964 0.12692775 0.050683513 -0.07693877 0.112741545 -0.049235802 -0.060395002 -0.020923609
0.075298704 0.08803966 0.028610686 0.06031664 -0.100846164 0.10188957 0.08732112 0.09230672
-0.055544034 -0.12240528 -0.02784223 0.06742773 -0.06437232 0.109113574 0.060200877 0.09691321
-0.11657241 -0.043113884 0.025656438 -0.05041747 -0.10114322 -0.07576185 0.07219372 -0.11178049
0.10134456 -0.088734135 -0.0850964 -0.061774317 -0.0094858855 -0.12936716 0.13238856 -0.007787726
0.0068531786 0.06808954 0.028353943 0.119950704 0.0045304163 0.1265884 -0.09466945 -0.018826524
-0.00072138105 -0.10894993 -0.04355194 0.011215227 -0.03982138 -0.08108762 0.087390795 0.0491603
0.07707489 0.05624104 0.01979214 -0.0926616 0.10470277 0.11664834 -0.057160124 0.023865983
-0.118275106 0.026425313 0.021417595 0.071735896 0.030754808 0.09193505 -0.08529879 0.0063451193
0.046542183 -0.10285595 0.09714126 0.13066195 -0.0973441 0.099537306 -0.13907191 -0.08816557
-0.100348435 -0.11998773 -0.09101512 -0.07841832 -0.11505211 0.10977119 -0.0006554577 0.04044573
-0.030472603 -0.098560914 0.010673858 -0.041663814 -0.019956036 -0.020036116 0.07286389 -0.020040872
0.09553313 -0.044248108 0.055263344 0.09119849 -0.10325116 -0.016912127 -0.013696898 -0.0789037
0.0020833118 0.044584796 -0.026365165 0.13112098 0.14236347 -0.10563365 0.055128418 0.12780431
-0.10829069 0.1116435 0.037347883 0.033111915 -0.022107288 -0.10277155 0.08389276 0.11335925
0.097808495 -0.047517914 -0.11250602 0.12545648 -0.035492796 0.008689911 -0.099643305 -0.018971637
0.051475253 0.050669085 -0.020007798 -0.04438172 -0.07278834 -0.086346254 -0.051523104 -0.113279425
00000000: 8d5a c2bd 91c6 b03c 4114 97bb 7c8e c83d
00000010: af28 0d3d c403 973d 04d5 be3d e71e 113e
00000020: ed54 f03c 2394 673d c54e 003c 230e f33d
00000030: 2a75 01bd b782 9b3d 21df 1ebd 4989 003e
00000040: 48af 3e3b b89a 8b3d 3a77 ad3d 11f3 d13d
00000050: 2e4c cd3d 4041 03be 5bee 02be bffc 0a3e
00000060: 49e5 6a3d 9d37 9c3d 9905 e83d 668f fcbd
00000070: 657f d33d a717 093d 336c ccbb e01f d1bd
00000080: b343 083e 9fb0 ebbd aa3a e23c c694 5abd
00000090: 3446 f43d 4090 1d3c b8a7 953d 2df6 d03d
000000a0: 6ce0 993d 8257 28bc ab46 a5bb 1b6b c53d
000000b0: 8443 12bc 474a 2cbb 553e bc3c c988 153d
000000c0: a361 70bd 4dff a7bd 9fa2 173e 73c8 e6bd
000000d0: 4fc3 42bd a98f c13c 12bb adbd c3c5 7cbc
000000e0: 2ac5 7cbd 52ab c63b 8059 e93d 22ab 673d
000000f0: 69af eabd b252 09be 1872 683d 0f89 a8bd
00000100: 4fff b6bc 102a 6cbd 42a5 e1bd 8709 1e3e
00000110: 28d1 ce3d a35f cf3d 3ec9 55bd 1244 003e
00000120: adf7 fbbc 3242 7a3c 52ee 37bc 90e5 b03d
00000130: 8c05 583d 4662 3f3b 4c91 6abd 8c32 fdbd
00000140: fd02 ccbd 4ad0 df3d 6b8a 7fbd a70a d5bd
00000150: e248 8abd afbe 40bc b3c4 373d 787f dbbd
00000160: 7c65 783c 2231 03be a9db 9dbc 4b31 ecbd
00000170: cda7 e93d 842a d2bd 0d6c fd3d db9a 2fbd
00000180: a55d 53bd d526 c63c baa6 e33d 5a0c 09bd
00000190: 17e8 c6bd 764a ad3d 552b e9bd cccb a13d
000001a0: 7349 653d f460 863c 6a3d bc3d 6646 8e3d
000001b0: 17a9 00be a743 f33d 8ff4 153d 4a43 3e3b
000001c0: eeb4 133e 53a2 f13d bef5 a1bd 1e4c 2f3d
000001d0: e08e d5bd 3bb5 76bd 226a 77bc 73b3 cabc
000001e0: 0e43 39bd 59f9 013e 8499 4f3d 1392 9dbd
000001f0: 0ae5 e63d 7bab 49bd c060 77bd fd67 abbc
00000200: 3536 9a3d 234e b43d f560 ea3c 950e 773d
00000210: 6f88 cebd 7bab d03d 6ad5 b23d 4e0b bd3d
00000220: 2482 63bd 9faf fabd 6315 e4bc 8d17 8a3d
00000230: a3d5 83bd f076 df3d 3295 763d 6f7a c63d
00000240: 84bd eebd 2f98 30bd 732d d23c 8d82 4ebd
00000250: 2d24 cfbd 0729 9bbd 4dda 933d 2bed e4bd
00000260: bd8d cf3d 3eba b5bd 0547 aebd 1107 7dbd
00000270: b06a 1bbc d378 04be de90 073e 2e30 ffbb
00000280: a190 e03b 8772 8b3d 8746 e83c b7a8 f53d
00000290: e373 943b 64a0 013e 0ee2 c1bd 153a 9abc
000002a0: 101b 3dba 2421 dfbd 8563 32bd 12c0 373c
000002b0: be1b 23bd 4411 a6bd f2f9 b23d 505c 493d
000002c0: 71d9 9d3d 015d 663d 2023 a23c 5dc5 bdbd
000002d0: 686e d63d 53e5 ee3d bc20 6abd 9882 c33c
000002e0: 383a f2bd e679 d83c f473 af3c 45ea 923d
000002f0: 82f1 fb3c 7248 bc3d 22b1 aebd b8ea cf3b
00000300: 04a3 3e3d 24a6 d2bd fff1 c63d 3fcc 053e
00000310: 585c c7bd 37da cb3d de68 0ebe 2690 b4bd
00000320: 7b83 cdbd 21bc f5bd 2366 babd c999 a0bd
00000330: 71a0 ebbd b8cf e03d 06d3 2bba 6caa 253d
00000340: aea1 f9bc 4eda c9bd 68e1 2e3c ada7 2abd
00000350: d77a a3bc c822 a4bc aa39 953d c12c a4bc
00000360: e0a6 c33d 813d 35bd d15b 623d 46c6 ba3d
00000370: 5875 d3bd 4d8b 8abc f468 60bc 4398 a1bd
00000380: 2c88 083b 8c9e 363d c2fb d7bc 9444 063e
00000390: bbc7 113e 7556 d8bd 56ce 613d 22df 023e
000003a0: 82c7 ddbd 59a5 e43d 18fa 183d 5ca0 073d
000003b0: 581a b5bc e479 d2bd f8cf ab3d e528 e83d
000003c0: d24f c83d 25a2 42bd 8e69 e6bd aa77 003e
000003d0: e560 11bd 2160 0e3c ca11 ccbd 686a 9bbc
000003e0: b7d7 523d 638a 4f3d 65e7 a3bc 9bc9 35bd
000003f0: 0e12 95bd 4ed6 b0bd e409 53bd 0bff e7bd

_module.lstm.weight_ih_l1 f4 [256, 64]
0.051827528 -0.0533889 0.080368996 -0.06602583 -0.14199507 0.11510135 -0.028181065 -0.09771622
-0.10662181 -0.01833001 0.017921431 -0.007688168 0.0731405 -0.080509804 -0.049054485 0.04480172
0.097186655 -0.06018918 0.088189885 0.069307365 -0.020615391 -0.1250589 0.001559738 -0.02376896
-0.06026028 0.048277937 0.04728589 0.024062078 -0.06013535 0.06493239 0.1031642 -0.08129094
0.12398366 -0.021929048 0.035773553 -0.107940875 -0.025679601 -0.08084517 -0.029487329 -0.07152768
-0.05492813 -0.093904994 0.10003857 -0.033407155 0.013138183 -0.059329618 -0.03639202 0.051588934
-0.011810273 0.12813829 0.03168793 0.048391357 0.0795643 0.012044356 -0.13414128 0.06571026
0.10762797 -0.03233704 0.0063861436 0.06563586 -0.01852854 0.04056659 0.06843237 -0.06887876
0.04635917 0.108625166 0.14069591 0.14949985 -0.03198447 0.033348583 0.12645781 -0.09741158
0.057903554 -0.015056125 0.111217216 -0.008281652 0.08262184 -0.09414197 0.05329749 0.00998459
0.0113223195 0.013555833 0.08055532 -0.078233175 -0.11936666 -0.016151669 -0.041943025 0.009551504
0.10105481 0.0029453482 0.10898485 0.10398868 0.0028865777 0.0048546656 -0.1132646 -0.059346575
0.050696146 -0.09982106 -0.09320027 -0.06571885 0.0039222157 0.08798852 0.017913789 0.0063578407
0.088726565 -0.109533474 0.008916433 0.000591954 0.04561425 0.106646664 0.11974656 0.015695544
-0.107095204 -0.0992084 -0.08347327 -0.11607628 -0.033131942 -0.059305105 -0.014410785 0.06980211
0.09483302 0.035712905 0.07082491 -0.10247254 0.08093618 -0.10992439 -0.039899804 -0.13332339
-0.11009875 0.050780848 0.051433027 -0.11599667 -0.08673999 0.037398115 0.020717395 -0.11246469
0.039019056 -0.13807887 -0.049823876 -0.10973059 0.08314145 0.008295201 0.11033789 0.08476296
0.070047654 0.09938497 0.06586288 0.010189448 -0.012436053 -0.061123766 -0.09949841 -0.06278236
-0.12911369 -0.08044762 0.030511862 0.062460627 0.026238069 0.007394163 -0.09478788 0.059213955
-0.13034716 -0.14852852 -0.099130504 0.15200013 -0.08469318 0.06378559 -0.04529738 0.1005077
-0.13456756 0.10155923 -0.09765562 -0.07470263 -0.036508396 0.050389934 -0.06673134 0.045667
-0.06822867 0.019677825 -0.044491794 0.08823355 -0.115967855 0.1307928 0.11100406 -0.123595834
0.0026818172 -0.048756655 -0.12821408 -0.05398752 0.10511755 -0.01757306 0.03764229 0.00055513653
-0.09428307 -0.072939485 -0.102396205 0.053481944 0.06647573 -0.083546564 0.05905408 0.09276112
0.07620836 -0.1313034 0.082155004 0.010289363 -0.085018426 0.04545736 -0.12501743 0.08312121
0.046447407 0.071520105 -0.030091584 0.1338151 -0.00036037795 0.021869838 0.088962086 -0.022072282
0.08814145 -0.07031321 0.026657853 -0.057556737 0.05986162 -0.08742474 -0.12802657 -0.019482797
-0.07909797 -0.03056215 -0.08377754 0.041412815 -0.08708583 -0.02002192 0.039257064 0.05621785
0.06263582 -0.057002246 0.12322017 -0.102379814 0.018928522 0.053175226 -0.07369443 -0.099123955
-0.14334255 -0.0016686949 -0.08115386 0.01835962 0.09198392 -0.0849566 -0.012504788 -0.13689482
-0.06585007 -0.12999205 0.04373573 -0.110778496 0.13464826 0.038647927 0.13532831 0.025520641
00000000: 1a49 543d 52ae 5abd 8098 a43d 8d38 87bd
00000010: 2867 11be 42ba eb3d fadb e6bc 711f c8bd
00000020: 895c dabd d128 96bc f7cf 923c 07ed fbbb
00000030: b0ca 953d 53e2 a4bd 5bed 48bd 0282 373d
00000040: cc09 c73d ee88 76bd e69c b43d 05f1 8d3d
00000050: 9ce1 a8bc 710f 00be 1f70 cc3a 1fb7 c2bc
00000060: 7cd3 76bd 16bf 453d d9ae 413d d61d c53c
00000070: 7c50 76bd 46fb 843d c147 d33d dd7b a6bd
00000080: 25eb fd3d 8ca4 b3bc 4a87 123d 1b10 ddbd
00000090: 075e d2bc 2792 a5bd 698f f1bc 1b7d 92bd
000000a0: 52fc 60bd 4351 c0bd 06e1 cc3d f1d5 08bd
000000b0: 8941 573c 9d03 73bd cc0f 15bd eb4e 533d
000000c0: e07f 41bc af36 033e 34cb 013d 0436 463d
000000d0: 9cf2 a23d b155 453c 555c 09be 1a93 863d
000000e0: 0e6c dc3d d873 04bd db42 d13b 186c 863d
000000f0: 2ac9 97bc 2729 263d 4526 8c3d 4f10 8dbd
00000100: 1de3 3d3d df76 de3d 9712 103e 7d16 193e
00000110: 2602 03bd 8698 083d 287e 013e b97f c7bd
00000120: 472c 6d3d f7ad 76bc dac5 e33d c4af 07bc
00000130: a435 a93d 81cd c0bd 784e 5a3d 6896 233c
00000140: 4081 393c 4919 5e3c 30fa a43d b738 a0bd
00000150: 8276 f4bd 8150 84bc 73cc 2bbd e97d 1c3c
00000160: d3f5 ce3d be06 413b 7333 df3d 04f8 d43d
00000170: bd2c 3d3b e313 9f3b 45f7 e7bd 6515 73bd
00000180: c3a6 4f3d fc6e ccbd c8df bebd 9b97 86bd
00000190: ee85 803b 5333 b43d f0bf 923c 6f55 d03b
000001a0: 46b6 b53d 1653 e0bd 3b16 123c 5c2d 1b3a
000001b0: 02d6 3a3d 9169 da3d af3d f53d f193 803c
000001c0: bb54 dbbd c62d cbbd 09f4 aabd 67b9 edbd
000001d0: 5cb5 07bd e9e9 72bd 371b 6cbc 69f4 8e3d
000001e0: d037 c23d b247 123d a70c 913d 20dd d1bd
000001f0: dec1 a53d 0a20 e1bd fa6d 23bd ed85 08be
00000200: 747b e1bd 94ff 4f3d 70ab 523d aa8f edbd
00000210: bca4 b1bd c42e 193d 87b7 a93c e353 e6bd
00000220: 72d2 1f3d 8c64 0dbe 1f14 4cbd 6eba e0bd
00000230: 1146 aa3d 98e8 073c d5f8 e13d 3498 ad3d
00000240: 2575 8f3d 598a cb3d 1ee3 863d a4f1 263c
00000250: 96c0 4bbc ea5c 7abd d3c5 cbbd 0a94 80bd
00000260: 6136 04be b9c1 a4bd 03f4 f93c b7d6 7f3d
00000270: 38f1 d63c bc4a f23b 2620 c2bd 558a 723d
00000280: ba79 05be dc17 18be ef04 cbbd eca5 1b3e
00000290: 9e73 adbd 05a2 823d bf89 39bd fbd6 cd3d
000002a0: 14cc 09be 49fe cf3d abff c7bd b1fd 98bd
000002b0: d489 15bd ad65 4e3d 71aa 88bd 520d 3b3d
000002c0: 79bb 8bbd 6433 a13c 073d 36bd cbb3 b43d
000002d0: 8e80 edbd 8cee 053e 1956 e33d d01f fdbd
000002e0: 6dc1 2f3b 0fb5 47bd 8d4a 03be 0522 5dbd
000002f0: df47 d73d 61f5 8fbc cd2e 1a3d 9586 113a
00000300: 7b17 c1bd 4c61 95bd 1ab5 d1bd e20f 5b3d
00000310: 6d24 883d 761a abbd b1e2 713d 8bf9 bd3d
00000320: 2113 9c3d 6674 06be e240 a83d b794 283c
00000330: 241e aebd 7f31 3a3d 9204 00be 743b aa3d
00000340: a33f 3e3d 2279 923d a082 f6bc d306 093e
00000350: 1cf1 bcb9 6028 b33c c131 b63d eed0 b4bc
00000360: 8183 b43d 5f00 90bd 9261 da3c 9dc0 6bbd
00000370: 7531 753d be0b b3bd 6619 03be 639a 9fbc
00000380: 1efe a1bd 795d fabc 8f93 abbd 7ca0 293d
00000390: 0e5a b2bd 0205 a4bc 04cc 203d b044 663d
000003a0: 3547 803d 307b 69bd db5a fc3d 82ac d1bd
000003b0: fd0f 9b3c 44ce 593d 1bed 96bd 8001 cbbd
000003c0: 64c8 12be 1cb8 daba ff33 a6bd ea66 963c
000003d0: 1162 bc3d bafd adbd e2e0 4cbc 282e 0cbe
000003e0: 67dc 86bd a31c 05be 3d24 333d d6df e2bd
000003f0: 3ce1 093e 4a4d 1e3d 8193 0a3e aa10 d13c

_module.lstm.bias_ih_l1 f4 [256]
-0.12314346 -0.063709654 0.036818754 0.038447343 0.054274935 -0.09072817 0.057503093 -0.0723377
-0.0031129902 -0.09373973 0.036338177 0.020710222 -0.0806723 0.007233919 -0.024335478 0.010627636
-0.06300288 -0.042074677 0.108244784 0.14799696 0.054373354 -0.012795939 -0.044784836 -0.10890463
0.0421782 -0.028612094 0.043881234 -0.02965461 0.012487089 0.05586224 0.12307368 -0.08197377
0.08549468 0.101355836 0.09881341 0.042547993 -0.07293338 0.032646228 -0.13356228 0.010628189
-0.114742726 -0.016822021 -0.06079455 0.0843081 -0.012935874 -0.020686008 0.049574524 -0.037156574
0.00015393802 0.08592963 0.050392814 0.040192906 -0.04212949 -0.0042835455 0.02010999 -0.027642267
-0.121548094 -0.02067635 -0.07759599 0.07636275 -0.08102892 0.02500811 0.015738884 0.07658988
-0.089078665 -0.123517856 -0.05317136 0.06930161 -0.012811417 0.08954008 0.0035277545 -0.06992115
-0.017244676 0.0062048733 0.07016742 -0.00791322 -0.07458126 -0.107301526 -0.12369574 0.03869552
-0.1190987 0.11062084 -0.09626726 -0.01510846 -0.112963386 -0.050739326 -0.020505121 0.0305983
-0.08426205 -0.0023704018 -0.08057601 0.040598 -0.05831015 0.0040614554 0.0313299 0.11940407
-0.10863598 0.0914631 -0.017876744 0.012222994 -0.067177005 0.025796391 0.09900428 0.07408967
-0.035991613 -0.008734662 -0.09198668 0.07810733 0.051886853 -0.03345864 0.09326547 0.011098765
0.06731238 -0.0018197692 0.048841577 -0.0014652016 -0.0058257543 -0.012084426 0.0018169008 -0.009488538
-0.0018218505 0.06564358 -0.03484694 0.05646854 -0.10551642 0.08079814 0.08618456 0.027552852
0.056385525 -0.08219026 0.04463901 0.0066238083 -0.07648057 0.032797653 0.02676507 0.036448516
-0.004356326 -0.05736147 -0.10694943 0.012686011 -0.07620624 0.13010031 0.15234329 -0.118452154
-0.082663134 0.060019813 0.07982267 -0.07073143 -0.11819322 -0.065506846 0.008364781 0.11812446
-0.004819679 3.8432896e-05 -0.04142045 0.11538367 0.036689807 0.053661276 0.11838361 -0.06379732
0.113787174 -0.046848044 0.15208128 -0.13594748 -0.064843416 0.11112181 -0.0017879423 0.15239625
0.0703041 -0.10236585 0.11251244 0.013473581 -0.08308296 0.03085861 0.11341643 -0.04118076
0.1309101 0.040394902 0.057754494 -0.101755135 0.082731865 0.050809894 0.012569083 0.014527958
-0.010292577 0.1285404 0.13277581 0.107624434 -0.091811165 0.032880377 -0.018606048 0.010516151
-0.11823792 -0.0752489 0.051586166 -0.084995784 0.04233216 -0.04707994 0.004854467 0.10685745
0.0818965 0.111319326 -0.042312834 0.025742657 0.05016676 0.0066648363 0.12066218 0.013019142
-0.046335533 -0.028299604 -0.10209756 0.11620289 -0.07176303 0.14695318 0.051266395 -0.118909016
-0.098049924 -0.087951586 0.112609714 -0.00038715574 0.023096988 0.054535013 0.06759202 -0.06431332
-0.108237684 0.06677358 0.118589535 0.028248245 -0.006891315 -0.01724773 0.09928691 -0.05926945
0.1231577 -0.04444704 -0.0696002 0.005648892 0.023807583 0.08355171 -0.019146496 0.02513588
0.08101925 0.027200865 -0.04820577 -0.025357353 -0.12152274 -0.12967642 0.017956985 -0.0036834127
0.06341884 -0.09209608 0.03539658 -0.10606304 -0.14646676 0.0704577 0.09616248 0.043648504
00000000: a332 fcbd 357a 82bd 43cf 163d f67a 1d3d
00000010: 654f 5e3d b1cf b9bd 5d88 6b3d ca25 94bd
00000020: 4f03 4cbb 9efa bfbd 57d7 143d 7ca8 a93c
00000030: 8537 a5bd 830a ed3b 325b c7bc 891f 2e3c
00000040: a707 81bd 7f56 2cbd 71af dd3d 848c 173e
00000050: 98b6 5e3d 0fa6 51bc 4e70 37bd 6409 dfbd
00000060: 0cc3 2c3d e963 eabc cfbc 333d 3aee f2bc
00000070: a696 4c3c cecf 643d 0e0e fc3d dde1 a7bd
00000080: d617 af3d a693 cf3d af5e ca3d ce46 2e3d
00000090: 195e 95bd 0db8 053d 8dc4 08be db21 2e3c
000000a0: 3cfe eabd 56ce 89bc b503 79bd baa9 ac3d
000000b0: fdf0 53bc b475 a9bc a80e 4b3d 7e31 18bd
000000c0: 6c6a 2139 e0fb af3d b268 4e3d 51a1 243d
000000d0: f98f 2cbd fc5c 8cbb b5bd a43c 0972 e2bc
000000e0: 35ee f8bd 7361 a9bc a5ea 9ebd 1364 9c3d
000000f0: 7ef2 a5bd cfdd cc3c d5ee 803c 28db 9c3d
00000100: e06e b6bd eef6 fcbd 36ca 59bd 01ee 8d3d
00000110: fae6 51bc ca60 b73d e631 673b d232 8fbd
00000120: b544 8dbc 4052 cb3b f0b3 8f3d 73a6 01bc
00000130: 0fbe 98bd e7c0 dbbd 3154 fdbd 327f 1e3d
00000140: 05ea f3bd 2e8d e23d c527 c5bd 7989 77bc
00000150: 5959 e7bd 0ad4 4fbd 5bfa a7bc 49a9 fa3c
00000160: 9591 acbd be58 1bbb 0905 a5bd 174a 263d
00000170: a0d6 6ebd f515 853b c853 003d 1f8a f43d
00000180: 8a7c debd 0151 bb3d 4072 92bc f442 483c
00000190: 1994 89bd f452 d33c c2c2 ca3d 53bc 973d
000001a0: f16b 13bd d41b 0fbc 8363 bcbd bcf6 9f3d
000001b0: 4f87 543d ed0b 09bd f701 bf3d 98d7 353c
000001c0: 13db 893d 5285 eeba 1b0e 483d 020c c0ba
000001d0: f8e5 bebb c2fd 45bc 1325 ee3a d075 1bbc
000001e0: 29cb eeba 2470 863d aabb 0ebd 8e4b 673d
000001f0: fe18 d8bd 7f79 a53d 8881 b03d 85b6 e13c
00000200: 82f4 663d 5e53 a8bd 65d7 363d 880c d93b
00000210: d8a1 9cbd d556 063d 6c42 db3c 0a4b 153d
00000220: 83bf 8ebb dcf3 6abd 4e08 dbbd fdd8 4f3c
00000230: 0412 9cbd 0439 053e e1ff 1b3e 0b97 f2bd
00000240: 4a4b a9bd 56d7 753d 117a a33d a4db 90bd
00000250: 490f f2bd 7428 86bd 6f0c 093c 3deb f13d
00000260: 66ee 9dbb 0233 2138 7da8 29bd 464e ec3d
00000270: 0d48 163d edcb 5b3d 1b73 f23d 2ba8 82bd
00000280: 4009 e93d bce3 3fbd 32bb 1b3e d135 0bbe
00000290: a0cc 84bd d593 e33d 6359 eaba c30d 1c3e
000002a0: 99fb 8f3d 30a5 d1bd ec6c e63d 4bc0 5c3c
000002b0: 6627 aabd 32cb fc3c e046 e83d 28ad 28bd
000002c0: 4c0d 063e 2075 253d fa8f 6c3d ff64 d0bd
000002d0: 536f a93d 091e 503d 8eee 4d3c ac06 6e3c
000002e0: 32a2 28bc 18a0 033e 62f6 073e 336a dc3d
000002f0: 7e07 bcbd 93ad 063d b66b 98bc ef4b 2c3c
00000300: b926 f2bd 181c 9abd 044c 533d 4512 aebd
00000310: 7d64 2d3d e5d6 40bd 3912 9f3b 14d8 da3d
00000320: 5ab9 a73d 63fb e33d 3950 2dbd 44e2 d23c
00000330: a97b 4d3d b364 da3b bc1d f73d 3d4e 553c
00000340: 54ca 3dbd 92d4 e7bc 8718 d1bd c8fb ed3d
00000350: 7ff8 92bd e57a 163e b6fc 513d 9286 f3bd
00000360: 66ce c8bd f61f b4bd ec9f e63d 2afb cab9
00000370: e535 bd3c 1b60 5f3d af6d 8a3d b4b6 83bd
00000380: b8ab ddbd 96c0 883d 12df f23d dd68 e73c
00000390: 8ad0 e1bb 1d4b 8dbc ef56 cb3d 86c4 72bd
000003a0: 1b3a fc3d 190e 36bd 8d8a 8ebd 571a b93b
000003b0: 1f08 c33c 291d ab3d 1dd9 9cbc c3e9 cd3c
000003c0: 6ced a53d 59d4 de3c 6a73 45bd 39ba cfbc
000003d0: eae0 f8bd e5c9 04be 871a 933c 6965 71bb
000003e0: bde1 813d df9c bcbd 01fc 103d 9437 d9bd
000003f0: 62fb 15be 204c 903d d6f0 c43d c6c8 323d

_module.lstm.weight_hh_l1 f4 [256, 64]
0.083811104 -0.08178264 0.09428267 0.09097356 -0.019029915 0.015078671 -0.08679617 -0.0028178876
-0.12576418 0.030546367 -0.022164242 0.0054605273 -0.044924915 0.080172114 -0.11514802 0.11022122
-0.023107648 0.07293523 -0.007920221 0.06839036 0.036687378 -0.09184345 -0.094626315 0.12759462
0.036901455 0.025130996 0.103782274 -0.028950777 -0.06254656 0.11264495 0.08165841 0.089881085
-0.13254549 0.05817523 0.07376059 -0.111570604 0.023239924 -0.13184129 0.00017769146 0.07031431
0.042680755 -0.09849137 -0.111205816 -0.026964946 0.034512375 0.10721707 0.07557272 -0.035639565
0.085109405 0.029895673 -0.023291448 0.028919848 -0.11548569 0.038607344 0.09371814 0.0965367
0.099907815 -0.11606044 0.0781084 0.029774008 -0.07941197 -0.06953806 -0.06703306 0.08621185
0.006882358 -0.1282151 -0.107843824 0.105530396 0.034172878 0.064913034 -0.025094291 -0.13046691
0.09896136 0.11035598 0.034410194 -0.0035254343 0.089177795 0.075970694 -0.06311108 -0.0045723156
-0.10926461 0.12653886 -0.09755663 0.01126818 0.09865773 0.02007313 -0.12177184 -0.03973888
-0.08862687 0.10105332 -0.08063212 0.06804731 -0.008422707 0.0046421527 -0.04520388 0.107132934
-0.10162388 -0.03286153 0.015755495 -0.107711926 0.11904845 0.0004866823 -0.092226505 -0.012753425
0.04510413 0.05692685 -0.038254056 0.055028316 -0.027360843 0.06493957 -0.074046515 -0.061896797
0.07008714 -0.09552768 0.037940018 0.0008419486 -0.11683726 -0.011969678 0.08381269 -0.049708106
-0.09720682 0.14483328 0.12082675 -0.08419201 -0.033743735 -0.011281584 -0.007663915 -0.022067327
-0.09539801 0.07880793 -0.007376456 -0.022457218 0.032687034 -0.04163325 0.06406589 0.025198923
-0.11297329 -0.011655705 -0.0014034259 0.11314144 0.05689915 -0.02183753 -0.03460765 -0.048097186
0.0051216586 0.013067131 -0.03777408 0.018099815 0.085055105 0.053693358 0.04362235 0.09676935
-0.018479839 0.069677845 0.08609525 -0.043273307 0.009082171 0.1098577 -0.07612957 0.039192267
0.028398821 -0.08469661 0.053164586 -0.09608599 -0.066431165 -0.019740611 -0.06570745 0.0057934513
0.013277892 -0.07018678 -0.054716203 -0.11744411 -0.017456621 0.08127679 -0.004404881 -0.07420076
0.07971526 0.10455246 0.08398806 0.01194342 -0.0452819 -0.13632467 0.021640854 -0.05054173
-0.046648264 0.10708373 0.02324797 -0.10094482 0.022362987 -0.084085606 0.11032855 0.0015339314
-0.029238733 0.0962296 0.07314461 -0.06003335 0.038292747 0.09370925 -0.054963738 0.110432446
0.027079687 0.046048146 -0.11056591 0.045404218 -0.04035728 0.04210157 0.04569956 0.09650632
0.0127374 -0.12605469 -0.08322158 0.031073255 0.06520236 0.05385233 -0.08682038 -0.087057695
-0.06496779 0.0014419197 -0.13970307 -0.042033017 -0.003940607 0.042098075 0.14351475 0.1286638
-0.053782992 0.06533301 0.06392195 0.05085346 0.0883609 -0.055123407 0.074783765 0.088062584
-0.068219215 -0.040317085 -0.07267032 0.12936917 0.064262226 -0.0021138566 -0.07346433 0.050364576
0.13211222 0.08819927 0.13312165 0.026374148 0.0024906446 0.10464723 0.040705994 -0.14105043
0.07110318 -0.062886395 -0.030088592 0.086075425 0.030118119 0.06727141 0.12574776 -0.095805295
00000000: 28a5 ab3d a87d a7bd 4617 c13d 5950 ba3d
00000010: a0e4 9bbc 880c 773c 31c2 b1bd 4fac 38bb
00000020: 53c8 00be 603c fa3c c991 b5bc 39ee b23b
00000030: 3003 38bd 4731 a43d bad2 ebbd aabb e13d
00000040: 404c bdbc 115f 953d d1c3 01bc 3f10 8c3d
00000050: 8145 163d 6b18 bcbd 71cb c1bd 2aa8 023e
00000060: fb25 173d 85df cd3c cd8b d43d 2e2a edbc
00000070: 6918 80bd 65b2 e63d 863c a73d 9313 b83d
00000080: 01ba 07be 2649 6e3d cb0f 973d 217f e4bd
00000090: a761 be3c 6701 07be b052 3a39 f300 903d
000000a0: 04d2 2e3d d8b5 c9bd e0bf e3bd 97e5 dcbc
000000b0: d95c 0d3d a094 db3d dfc5 9a3d cbfa 11bd
000000c0: d74d ae3d c5e7 f43c b5cd bebc 51e9 ec3c
000000d0: c383 ecbd bc22 1e3d 4cef bf3d 09b5 c53d
000000e0: 789c cc3d 19b1 edbd 4cf7 9f3d 9fe8 f33c
000000f0: bea2 a2bd f869 8ebd a148 89bd d78f b03d
00000100: 6785 e13b d24a 03be 39dd dcbd 5220 d83d
00000110: dcf8 0b3d 20f1 843d 8b92 cdbc 1e99 05be
00000120: 41ac ca3d 5102 e23d b4f1 0c3d f90a 67bb
00000130: d9a2 b63d 8696 9b3d 6240 81bd 5dd3 95bb
00000140: 20c6 dfbd 6793 013e c5cb c7bd 2c9e 383c
00000150: 100d ca3d 6870 a43c 8463 f9bd 3cc5 22bd
00000160: 0182 b5bd 0bf5 ce3d 7422 a5bd 635c 8b3d
00000170: 65ff 09bc 331d 983b b427 39bd 8368 db3d
00000180: 2e20 d0bd d099 06bd ab11 813c 1298 dcbd
00000190: accf f33d 6429 ff39 40e1 bcbd bef3 50bc
000001a0: 1cbf 383d 212c 693d 49b0 1cbd 5f65 613d
000001b0: d923 e0bc 0aff 843d b3a5 97bd 7f87 7dbd
000001c0: d989 8f3d 04a4 c3bd fe66 1b3d 37b6 5c3a
000001d0: 6048 efbd 781c 44bc fda5 ab3d ba9a 4bbd
000001e0: 5f14 c7bd 2d4f 143e 0474 f73d dc6c acbd
000001f0: df36 0abd 65d6 38bc 9421 fbbb 8ac6 b4bc
00000200: 0860 c3bd 0d66 a13d 33b6 f1bb 33f8 b7bc
00000210: d7e2 053d a087 2abd fa34 833d f96d ce3c
00000220: 8a5e e7bd 92f7 3ebc 29f3 b7ba b3b6 e73d
00000230: 150f 693d 9fe4 b2bc c0c0 0dbd 8e01 45bd
00000240: 96d3 a73b 8517 563c feb8 1abd 1046 943c
00000250: 5f31 ae3d 91ed 5b3d 59ad 323d 022f c63d
00000260: 0863 97bc 42b3 8e3d b552 b03d 5a3f 31bd
00000270: 63cd 143c 13fd e03d d2e9 9bbd 1288 203d
00000280: a5a4 e83c 6b75 adbd 1cc3 593d bbc8 c4bd
00000290: 100d 88bd 10b7 a1bc a191 86bd fed6 bd3b
000002a0: 848b 593c 16be 8fbd 191e 60bd 8a86 f0bd
000002b0: 3001 8fbc 7274 a63d d256 90bb 91f6 97bd
000002c0: c141 a33d 9a1f d63d ef01 ac3d 56ae 433c
000002d0: 8379 39bd b298 0bbe 2948 b13c d804 4fbd
000002e0: 4012 3fbd b74e db3d 8772 be3c 28bc cebd
000002f0: 9532 b73c 1335 acbd eff3 e13d 320e c93a
00000300: 1186 efbc 0614 c53d d7cc 953d 88e5 75bd
00000310: dbd8 1c3d a3ea bf3d a821 61bd 682a e23d
00000320: 38d6 dd3c fb9c 3c3d 6170 e2bd c6f9 393d
00000330: ad4d 25bd b272 2c3d 762f 3b3d 1ba5 c53d
00000340: 87b0 503c 7b14 01be 1370 aabd 578d fe3c
00000350: d188 853d 4394 5c3d e2ce b1bd 4e4b b2bd
00000360: d50d 85bd ccfe bc3a 520e 0fbe d02a 2cbd
00000370: 3520 81bb 086f 2c3d 88f5 123e 71c0 033e
00000380: 8e4b 5cbd 50cd 853d 83e9 823d b84b 503d
00000390: 8ff6 b43d 15c9 61bd 3b28 993d 285a b43d
000003a0: 84b6 8bbd 8723 25bd 2dd4 94bd 5a79 043e
000003b0: ea9b 833d a188 0abb 7774 96bd 164b 4e3d
000003c0: 6d48 073e d2a1 b43d 0b51 083e 990e d83c
000003d0: 153a 233b 4951 d63d 54bb 263d 866f 10be
000003e0: 8b9e 913d 95ca 80bd 5a7c f6bc 5048 b03d
000003f0: 46ba f63c 98c5 893d 05c4 003e 9135 c4bd
